…
      (activation): ReLU()
    )
    (2): MaskedResidualBlock(
      (layers): ModuleList(
        (0): MaskedLinear(in_features=32, out_features=32, bias=True)
        (1): MaskedLinear(in_features=32, out_features=32, bias=True)
      )
      (activation): ReLU()
    )
    (3): MaskedResidualBlock(
      (layers): ModuleList(
        (0): MaskedLinear(in_features=32, out_features=32, bias=True)
        (1): MaskedLinear(in_features=32, out_features=32, bias=True)
      )
      (activation): ReLU()
    )
    (4): MaskedLinear(in_features=32, out_features=50, bias=True)
  )
  (embeddings): ModuleList(
    (0): Embedding(74, 4)
    (1): Embedding(9, 4)
    (2): Embedding(16, 4)
    (3): Embedding(16, 4)
    (4): Embedding(7, 4)
    (5): Embedding(15, 4)
    (6): Embedding(6, 4)
    (7): Embedding(5, 4)
    (8): None
    (9): Embedding(123, 4)
    (10): Embedding(99, 4)
    (11): Embedding(96, 4)
    (12): Embedding(42, 4)
  )
  (unk_embeddings): ParameterList(
      (0): Parameter containing: [torch.FloatTensor of size 1x4]
      (1): Parameter containing: [torch.FloatTensor of size 1x4]
      (2): Parameter containing: [torch.FloatTensor of size 1x4]
      (3): Parameter containing: [torch.FloatTensor of size 1x4]
      (4): Parameter containing: [torch.FloatTensor of size 1x4]
      (5): Parameter containing: [torch.FloatTensor of size 1x4]
…
